target_net.pkl (torch, 175403 bytes, 12 tensors)

sum f4 [128, 32]
1.5290662e+10 3.690234e+09 1.0746445e+09 1.6579901e+09 4.553244e+09 1.7244393e+09 1.1105339e+10 4.47013e+09
5.7167674e+08 6.2755315e+08 2.942088e+09 1.2985085e+08 5.9161144e+07 1.9148596e+09 5.2333676e+09 2.4600608e+08
4.02283e+09 4.2589417e+09 7.4323845e+09 4.7278474e+09 1.8229311e+10 1.3124472e+10 2.1532914e+10 3.2704812e+09
8.1215906e+10 9.145349e+08 4.5182126e+09 7.078684e+08 1.8298972e+09 5.442375e+08 1.4711515e+11 2.613699e+09
6.49067e+09 2.3055928e+09 4.6869535e+09 3.917978e+08 4.483341e+09 1.04822445e+09 6.0316467e+09 2.3515576e+09
1.0748246e+08 2.2035149e+08 9.284485e+08 7.787117e+07 2.9867904e+07 1.7502921e+09 2.5496215e+09 1.2157649e+08
6.529138e+09 2.0225815e+09 3.8203523e+09 2.784089e+09 7.5774986e+09 1.0892889e+10 1.3782472e+10 3.955633e+09
5.2107715e+10 6.382577e+08 2.2202127e+09 4.5706602e+08 1.06663686e+09 2.6112869e+08 2.1104306e+10 1.774618e+09
2.0633816e+09 1.5452457e+09 1.5365596e+09 7.3305536e+08 1.658311e+09 8.315161e+08 2.5292196e+09 8.701681e+08
4.4593948e+07 3.9598166e+08 1.4295588e+09 8.057605e+07 4.3252556e+07 1.0784068e+09 2.1865882e+09 9.507696e+07
2.5338606e+09 2.4641933e+09 3.674887e+09 2.1509906e+09 3.4485827e+09 3.5104346e+09 5.808307e+09 1.8415487e+09
3.8880395e+10 2.382556e+08 4.121826e+08 1.005601e+08 5.547825e+08 2.4335843e+08 8.3721765e+10 1.2023953e+09
1.790825e+10 7.638225e+09 1.971117e+10 2.0075684e+07 1.4262263e+10 2.5526996e+09 1.7074868e+10 1.1620408e+10
1.5810171e+08 2.6743434e+08 6.8614195e+08 1.0519794e+08 2.916367e+08 6.77934e+09 6.0869724e+09 3.6670054e+08
2.499832e+10 5.644491e+09 1.0068192e+10 6.9527235e+09 2.1813537e+10 3.5311792e+10 4.4991234e+10 1.3319967e+10
1.9742458e+11 2.8390351e+09 1.2121044e+10 1.2587814e+09 2.871629e+09 6.4899206e+08 2.5309814e+09 8.879404e+08
1.3357513e+10 6.251588e+09 6.7207946e+09 1.5083194e+08 7.28887e+08 8.429899e+08 2.1280795e+10 3.6337428e+09
4.2154092e+07 1.2233411e+08 1.7066684e+07 1.2742068e+07 7.4693425e+06 5.332701e+09 1.513266e+09 3.445455e+07
1.1827912e+10 5.602703e+08 6.725236e+09 4.0014413e+09 1.4649465e+10 1.475576e+10 2.6362968e+10 3.3624806e+08
7.0649676e+10 1.8105951e+09 8.67021e+09 6.018316e+08 8.821974e+08 3.3889107e+08 5.4030823e+10 2.8488755e+09
7.9170847e+09 2.533685e+09 4.9443016e+09 7.353358e+08 4.4507167e+09 1.593785e+09 6.251208e+09 3.893297e+09
8.498691e+07 4.8066112e+08 1.2070577e+09 6.6762972e+07 1.2248744e+08 2.1606062e+09 5.12408e+09 9.789495e+07
6.8495447e+09 3.2403894e+09 5.101091e+09 2.6968927e+09 9.80803e+09 1.1380737e+10 1.593196e+10 3.5874499e+09
7.4955555e+10 8.3773357e+08 4.1023954e+09 4.9892205e+08 1.4668297e+09 4.8004784e+08 1.4939477e+11 1.6790017e+09
4.7210045e+09 6.9030874e+08 2.9384077e+09 4.8404045e+08 3.1489981e+09 1.4463965e+09 2.2843318e+09 1.9926934e+09
4.0926973e+08 4.101572e+08 2.7040352e+07 7.744321e+07 7.5517464e+07 6.517558e+08 7.3196774e+09 1.6639238e+08
4.0035297e+09 2.5639188e+09 2.2509786e+09 1.3456306e+09 5.618965e+09 5.2299325e+09 8.730621e+09 1.8005208e+09
5.3568094e+10 4.2096832e+08 1.991638e+09 2.97667e+08 1.06813984e+09 3.1485776e+08 9.129537e+10 1.1330925e+09
1.6201266e+10 5.602692e+09 3.6544893e+09 1.2593001e+09 1.1139106e+10 4.7561093e+09 4.0564106e+09 6.903924e+09
761596.2 2.2280422e+09 3.038436e+09 1.0476524e+08 7.389154e+08 1.4605324e+09 1.2745219e+10 5.0628032e+08
6.824439e+09 1.1128293e+10 1.4919266e+10 5.733757e+09 2.2146986e+10 1.7556111e+10 2.6553334e+10 7.6084844e+09
2.822211e+09 5.1179568e+08 4.0982016e+09 9.4639994e+08 5.123127e+09 2.1318991e+09 7.130996e+11 6.1009024e+08
00000000: 3fd9 6350 81f4 5b4f 8c1b 804e d8a5 c54e
00000010: 7fb2 874f b691 cd4e 827b 2550 6338 854f
00000020: 614c 084e ce9e 154e b35c 2f4f bcab f74c
00000030: 8eae 614c e144 e44e 6df7 9b4f 149c 6a4d
00000040: 84c7 6f4f 4bda 7d4f 9880 dd4f 9de6 8c4f
00000050: a7d1 8750 e391 4350 c66e a050 95ef 424f
00000060: c346 9751 c80a 5a4e 3aa7 864f dcc4 284e
00000070: 0824 da4e 9fc1 014e fc02 0952 e2c9 1b4f
00000080: e26f c14f 8e6c 094f 9eae 8b4f e1d2 ba4d
00000090: 2d9d 854f 8bea 794e d0c1 b34f ec29 0c4f
000000a0: ac01 cd4c c024 524d 005c 5d4e 0887 944c
000000b0: c0df e34b ada6 d04e 23f8 174f 85e3 e74c
000000c0: 5f95 c24f 4a1c f14e f3b5 634f d4f1 254f
000000d0: bad3 e14f 1351 2250 f55f 4d50 2bc6 6b4f
000000e0: ca1d 4251 292c 184e c255 044f 31f2 d94d
000000f0: 594e 7e4e 1f08 794d 453d 9d50 0b8d d34e
00000100: 69f9 f54e 2835 b84e 142c b74e 26c6 2e4e
00000110: a3af c54e b73f 464e d4c0 164f d976 4f4e
00000120: c71c 2a4c 9bd1 bc4d ac6a aa4e c6af 994c
00000130: d3fe 244c 5d8e 804e b054 024f 4c58 b54c
00000140: a507 174f 9be0 124f 530a 5b4f 8335 004f
00000150: 328d 4d4f fb3c 514f de19 ad4f 9b87 db4e
00000160: 3cd7 1051 df37 634d 428b c44d 9ccd bf4c
00000170: 3d45 044e ae15 684d a6f1 9b51 3156 8f4e
00000180: 476d 8550 08a3 e34f 13dc 9250 522a 994b
00000190: 3786 5450 1b27 184f 746f 7e50 5728 2d50
000001a0: 0dc7 164d 960b 7f4d c896 234e 2ea6 c84c
000001b0: 2f10 8b4d 420a ca4f ea67 b54f 40db ae4d
000001c0: 8340 ba50 0c38 a84f 1b07 1650 1235 cf4f
000001d0: 0586 a250 f38b 0351 fc9a 2751 a47b 4650
000001e0: b0dd 3752 3d38 294f 1d9e 3450 f60e 964e
000001f0: 9529 2b4f 55bb 1a4e b6db 164f 95b3 534e
00000200: de0a 4750 d54f ba4f 984b c84f 34d8 0f4d
00000210: bbc7 2d4e 05fc 484e e58d 9e50 8496 584f
00000220: 1bce 204c 7455 e94c 5e35 824b b46d 424b
00000230: 3df2 e34a 48ed 9e4f 3765 b44e 066f 034c
00000240: e73f 3050 2f94 054e 7b6d c84f 2681 6e4f
00000250: 464b 5a50 c2e0 5b50 5f6b c450 e855 a04d
00000260: 6498 8351 fad6 d74e 3a32 0150 e37c 0f4e
00000270: 0e55 524e 8a98 a14d cf47 4951 64ce 294f
00000280: 90f2 eb4f f704 174f 075a 934f 5651 2f4e
00000290: 46a4 844f 75fe bd4e ef4c ba4f ff0e 684f
000002a0: 8419 a24c 7432 e54d 7ae4 8f4e 37ae 7e4c
000002b0: 52a0 e94c 3cc8 004f a1b5 984f 45b8 ba4c
000002c0: e121 cc4f 6b24 414f 3c06 984f 51bf 204f
000002d0: aa26 1250 1196 2950 9b67 6d50 24d4 554f
000002e0: 989d 8b51 33bb 474e 9685 744f 92e7 ed4d
000002f0: 17dc ae4e 97e7 e44d 7d22 0b52 1127 c84e
00000300: 68b2 8c4f 1a95 244e 8b24 2f4f f8ce e64d
00000310: e6b1 3b4f 856c ac4e 2328 084f 2d8c ed4e
00000320: af27 c34d 0494 c34d 304d ce4b 11b6 934c
00000330: c309 904c 0464 1b4e b524 da4f 24af 1e4d
00000340: 04a1 6e4f 4cd2 184f 352b 064f 6369 a04e
00000350: 4d75 a74f 38dd 9b4f ad18 0250 89a3 d64e
00000360: 848e 4751 bcbb c84d f86b ed4e 4ef0 8d4d
00000370: 15aa 7e4e c922 964d 060d aa51 3d13 874e
00000380: ed6a 7150 26f9 a64f 15d3 594f ca1e 964e
00000390: 51fc 2550 3cbe 8d4f eac7 714f c3c0 cd4f
000003a0: c3ef 3949 3acd 044f db1a 354f e7d2 c74c
000003b0: d12b 304e e91b ae4e 27eb 3d50 cc69 f14d
000003c0: 5662 cb4f 12d3 2550 7c50 5e50 18e1 aa4f
000003d0: 0602 a550 a0cd 8250 77d6 c550 21c0 e24f
000003e0: 8637 284f 0f0b f44d 9845 744f aba3 614e
000003f0: 5bae 984f 6624 fe4e 0c08 2653 f474 114e

sum f4 [128]
2.1602746e+10 1.3791677e+10 5.832124e+09 4.4997194e+10 2.6380022e+10 1.5961839e+10 8.785519e+09 2.6599662e+10
3.953171e+09 9.165362e+08 7.8449326e+09 1.09495e+09 5.992269e+10 6.816596e+09 1.2098808e+09 2.0406817e+10
4.8796073e+09 4.479e+09 2.7211292e+09 1.7369878e+09 3.1575665e+10 6.829798e+08 1.0761623e+10 8.316777e+09
2.5453898e+10 1.4829493e+10 1.1760589e+10 1.2521206e+10 1.757892e+09 1.5557664e+10 8.988885e+09 5.644992e+09
2.1798998e+10 3.9460122e+09 2.3287144e+10 4.768205e+09 5.0822267e+09 3.996565e+10 5.801679e+09 2.9565532e+10
3.539063e+09 9.339798e+09 7.5328e+09 2.3411247e+10 7.6619223e+09 3.0684173e+09 2.1768727e+09 1.4379539e+10
2.1536467e+10 5.749885e+09 1.759384e+10 1.2796092e+09 7.8568443e+09 5.445298e+09 1.6604604e+10 1.6112888e+09
3.819187e+10 1.6097969e+09 2.6185155e+10 2.3949798e+09 6.1553123e+10 8.864128e+09 1.2947229e+10 2.0796942e+10
2.4575517e+10 2.0808564e+09 4.2853404e+09 7.0875924e+09 9.833028e+09 5.0009196e+09 4.548777e+10 1.2917212e+10
9.206356e+09 2.8294656e+10 1.4529395e+10 1.8078409e+10 1.0341963e+10 1.1820262e+10 4.186256e+10 5.2344443e+10
1.0313443e+10 3.0246467e+09 9.785641e+09 4.9484345e+10 1.9236397e+10 1.3978482e+09 2.1977162e+10 1.3842793e+10
1.9005213e+10 6.7143444e+09 1.7934313e+09 2.100246e+10 1.9937738e+09 3.472262e+10 1.136257e+10 3.1189322e+09
2.7766559e+10 2.97363e+10 1.0514393e+10 1.7072477e+10 1.7151573e+10 7.284047e+09 1.7918534e+10 2.0199506e+09
1.2563548e+10 3.4938253e+10 2.669108e+10 1.3782177e+10 4.058812e+10 6.0504827e+09 3.0990292e+09 1.3658485e+10
4.9104142e+10 1.3412837e+10 1.4134877e+10 2.0590635e+10 2.0235575e+10 8.4646415e+09 5.045849e+10 4.95401e+10
2.952342e+10 3.1481967e+10 6.986218e+09 6.629704e+09 2.707048e+10 6.445616e+10 2.9146892e+10 3.652138e+10
00000000: f8f3 a050 1383 4d50 93cf ad4f aba0 2751
00000010: e68b c450 95d9 6d50 18ea 0250 d42e c650
00000020: 9aa0 6b4f ee84 5a4e 16cc e94f 3987 824e
00000030: bb3a 5f51 8026 cb4f a23a 904e ea0a 9850
00000040: 736c 914f 0f7c 854f 2331 224f a910 cf4e
00000050: cd41 eb50 c7d5 224e 555c 2050 f9db f74f
00000060: 75a5 bd50 07fa 5c50 163f 2f50 9c94 3a50
00000070: 9b8e d14e c7d3 6750 e0f1 0550 df3b a84f
00000080: 4a6a a250 5e33 6b4f b480 ad50 841a 8e4f
00000090: 5076 974f 37e2 1451 4ce7 ac4f c747 dc50
000000a0: d1f1 524f 802c 0b50 b47e e04f 696d ae50
000000b0: d457 e44f 55e4 364f 71c0 014f 9745 5650
000000c0: 8d75 a050 245c ab4f 9615 8350 938a 984e
000000d0: f726 ea4f 5448 a24f 8a6d 7750 a214 c04e
000000e0: 9b46 0e51 1ae7 bf4e 3818 c350 7ec0 0e4f
000000f0: a24d 6551 f715 0450 c2ed 4050 05f3 9a50
00000100: 141a b750 b30e f84e 1b6d 7f4f 0a3a d34f
00000110: 0686 1250 fd09 954f 8574 2951 417b 4050
00000120: 762f 0950 c6cf d250 3e81 5850 d4b1 8650
00000130: 751b 1a50 b922 3050 40f3 1b51 8dff 4251
00000140: aaae 1950 7248 344f 42d1 1150 f357 3851
00000150: 8452 8f50 f1a2 a64e 1cbe a350 1146 4e50
00000160: 9199 8d50 621a c84f 2ecb d54e 037b 9c50
00000170: 26ad ed4e 125a 0151 c450 2950 21e7 394f
00000180: 82e0 ce50 7e8d dd50 3aad 1c50 5566 7e50
00000190: 0f94 7f50 de14 d94f e480 8550 00cc f04e
000001a0: 2236 3b50 b727 0251 32dd c650 d55e 4d50
000001b0: d933 1751 8551 b44f 6fb7 384f fc86 4b50
000001c0: 5ced 3651 eadd 4750 47a0 5250 8569 9950
000001d0: 4cc4 9650 1744 fc4f f7f8 3b51 1f8d 3851
000001e0: 74f7 db50 168f ea50 9d34 d04f a194 c54f
000001f0: d8b0 c950 2f1e 7051 4929 d950 810d 0851

sum f4 [128, 128]
68.914116 476.7033 221.73781 126.9251 61.683304 37.87985 39.59559 29.757618
127.22884 87.01967 469.52856 149.80518 6.8930106 29.701904 710.81323 75.36525
26.09369 232.53546 94.24348 686.4279 77.27363 810.20953 825.57025 13.1789875
276.83713 154.66669 33.62733 608.1583 99.85775 63.88322 142.62456 662.393
34.574936 97.641426 139.60298 65.4129 41.145885 26.782883 412.80582 81.96403
60.824 520.5969 26.47596 89.50487 76.895035 25.517675 40.536514 10.777617
50.999287 128.36826 8.964164 181.29297 51.968166 126.105865 137.39856 98.715065
142.16359 156.91467 101.63975 155.99825 13.176299 120.703705 32.143127 42.92603
13.003437 151.35237 490.6431 68.22806 904.2663 48.864285 154.5032 76.35067
122.429504 346.64252 30.318127 95.227615 47.610695 124.5602 48.61822 28.93017
59.50998 131.55531 61.24178 31.744556 33.84793 58.215393 89.52819 557.3617
234.781 9.634447 74.48962 180.75037 719.7839 563.8916 62.769714 37.738422
19.662584 364.59756 121.92801 207.73575 38.72335 23.328766 127.45835 124.326805
50.428703 1.5507143 269.64026 21.515106 86.93005 32.79647 32.715836 27.026342
1.2545239 23.41995 36.51164 86.40341 68.970825 307.6602 74.884865 6.423409
93.66325 54.80454 36.754642 34.521667 2.2067654 104.545135 72.79586 21.278343
2.0390022e+08 1.2987503e+08 9.636973e+07 4.664521e+07 3.3305244e+07 4.4733075e+08 1.5664082e+08 1.6322017e+07
1.8657206e+08 3.017035e+08 2.6162074e+07 1.563418e+08 4.3511084e+07 1.4498776e+08 3.0149238e+08 9.4695e+07
1.6988675e+08 1.2580154e+08 1.03108576e+09 7.2430784e+08 5.122357e+07 6.423098e+08 1.9153957e+08 2.6495056e+07
3.6898044e+07 9.35658e+07 5.4862668e+07 9.7781096e+07 1.5698682e+08 3.2252272e+07 4.290345e+08 3.906875e+08
1.1584884e+07 1.237847e+08 1.2440388e+08 1.6695442e+07 4.4861044e+07 3.355715e+08 3.5936355e+08 9.071395e+06
2.2039075e+08 5.317979e+08 2.089523e+07 7.533425e+07 7.651837e+07 9.955321e+06 1.6596018e+08 3.905519e+08
8.096258e+07 4.0269517e+08 1.0580774e+08 1.0751617e+09 7.951039e+07 3.0686317e+08 1.2664493e+08 1.2523031e+08
9.439508e+06 2.1696904e+07 5.007457e+07 2.2692118e+08 1.1911993e+08 3.5296074e+08 6.741486e+07 1.2673281e+07
6.5561144e+07 5.8090025e+06 8.0969005e+08 6.2300988e+07 4.712924e+07 1.8200101e+08 6.530095e+06 1.7379613e+08
1.7352355e+08 5.3299108e+07 7.501592e+06 1.4360389e+07 1.226036e+08 2.7794452e+07 2.9716618e+07 6.2832e+06
1.4305528e+08 6.425901e+08 1.811013e+08 1.9285309e+08 1.3967576e+08 1.1146589e+08 1.3659586e+08 3.0229406e+07
1.7832442e+08 2.2772786e+07 3.9330054e+08 3.6564716e+07 1.0433225e+09 1.8836724e+07 7.55858e+07 1.6471491e+08
3.7669656e+07 2.2331536e+07 8.745085e+07 1.7553872e+07 2.2373854e+08 2.4878195e+06 1.049426e+07 6.3421805e+08
2.3061774e+07 1.6565556e+07 1.7646696e+08 1.9169992e+08 1.1469491e+08 3.0034854e+08 1.2035043e+07 2.0292486e+07
1.406294e+07 3.0037194e+08 1.6795282e+08 3.1910064e+08 5.6528995e+06 3.0152013e+08 3.092706e+08 3.5907742e+06
1.4576152e+08 2.0056931e+08 1.8568728e+08 6.626155e+07 1.5264451e+08 1.7453198e+08 4.3447252e+07 8.831024e+07
00000000: 07d4 8942 065a ee43 e1bc 5d43 a7d9 fd42
00000010: b4bb 7642 f784 1742 e261 1e42 9a0f ee41
00000020: 2b75 fe42 120a ae42 a8c3 ea43 20ce 1543
00000030: 8b93 dc40 809d ed41 0cb4 3144 02bb 9642
00000040: e1bf d041 1489 6843 a97c bc42 639b 2b44
00000050: 198c 9a42 698d 4a44 7f64 4e44 22dd 5241
00000060: 276b 8a43 acaa 1a43 6382 0642 220a 1844
00000070: 2bb7 c742 6b88 7f42 e39f 0e43 2799 2544
00000080: bc4c 0a42 6948 c342 5d9a 0b43 68d3 8242
00000090: 6395 2442 5843 d641 2567 ce43 95ed a342
000000a0: c74b 7342 3426 0244 c4ce d341 7e02 b342
000000b0: 42ca 9942 3324 cc41 6425 2242 1f71 2c41
000000c0: 45ff 4b42 465e 0043 376d 0f41 004b 3543
000000d0: 67df 4f42 3436 fc42 0866 0943 1d6e c542
000000e0: e129 0e43 28ea 1c43 8d47 cb42 8dff 1b43
000000f0: 1fd2 5241 4c68 f142 9092 0042 41b4 2b42
00000100: 140e 5041 355a 1743 5152 f543 c474 8842
00000110: 0b11 6244 0775 4342 d280 1a43 8bb3 9842
00000120: e8db f442 3e52 ad43 868b f241 8a74 be42
00000130: 5a71 3e42 d31e f942 0f79 4242 fd70 e741
00000140: 380a 6e42 298e 0343 95f7 7442 daf4 fd41
00000150: 4864 0742 90dc 6842 6f0e b342 2657 0b44
00000160: f0c7 6a43 b226 1a41 affa 9442 18c0 3443
00000170: 2bf2 3344 10f9 0c44 3014 7b42 25f4 1642
00000180: f94c 9d41 7d4c b643 24db f342 5abc 4f43
00000190: b6e4 1a42 50a1 ba41 adea fe42 53a7 f842
000001a0: feb6 4942 ce7d c63f f4d1 8643 f01e ac41
000001b0: 30dc ad42 962f 0342 04dd 0242 f335 d841
000001c0: 3d94 a03f 0f5c bb41 eb0b 1242 8cce ac42
000001d0: 10f1 8942 81d4 9943 0dc5 9542 918c cd40
000001e0: 9653 bb42 d937 5b42 c104 1342 3016 0a42
000001f0: a53b 0d40 1c17 d142 7b97 9142 0c3a aa41
00000200: 5474 424d 8bb7 f74c 88cf b74c f6ef 314c
00000210: 4e19 fe4b ce4d d54d 6362 154d e10d 794b
00000220: d2ed 314d 0add 8f4d cd99 c74b 6219 154d
00000230: 4bfb 254c 6745 0a4d 45c3 8f4d cb9d b44c
00000240: 4204 224d 88f2 ef4c 7bd4 754e 3eb0 2c4e
00000250: 0467 434c 7b23 194e 97aa 364d 2824 ca4b
00000260: 3fc1 0c4c 6d76 b24c d348 514c ad80 ba4c
00000270: dcb6 154d b810 f64b 6094 cc4d 584b ba4d
00000280: 74c5 304b c019 ec4c 1548 ed4c 92c0 7e4b
00000290: 9d21 2b4c 5103 a04d 9f5b ab4d 236b 0a4b
000002a0: 562e 524d bc94 fd4d ff6a 9f4b 4db0 8f4c
000002b0: 7cf2 914c f9e7 174b 9f45 1e4d cb3a ba4d
000002c0: 826c 9a4c 2005 c04d f0cf c94c 552b 804e
000002d0: 6fa7 974c e252 924d 588e f14c 9ddb ee4c
000002e0: 1409 104b c488 a54b f204 3f4c ae68 584d
000002f0: 0734 e34c 074e a84d 6a95 804c 0161 414b
00000300: 8e18 7a4c d546 b14a 8f0b 414e cfa8 6d4c
00000310: a6c8 334c d791 2d4d 5e48 c74a b2be 254d
00000320: 267c 254d e951 4b4c 30ee e44a 451f 5b4b
00000330: 0ad9 e94c 0a0e d44b 45b8 e24b 80bf bf4a
00000340: 9b6d 084d 9634 194e 2fb6 2c4d 46eb 374d
00000350: 8734 054d b49a d44c 9944 024d cfa1 e64b
00000360: 3c10 2a4d 19be ad4b 528a bb4d bb7b 0b4c
00000370: 5abf 784e 7ab6 8f4b 212b 904c 9a15 1d4d
00000380: c6b2 0f4c 4860 aa4b 9ccc a64c e8ec 854b
00000390: ab5f 554d 2ed8 174a 3421 204b 9935 174e
000003a0: 87f2 af4b 34c5 7c4b c14a 284d bdd1 364d
000003b0: 60c3 da4c a437 8f4d e3a3 374b c3d1 9a4b
000003c0: 5c95 564b 7f3a 8f4d 1b2c 204d b728 984d
000003d0: 4783 ac4a a8c6 8f4d c278 934d d929 5b4a
000003e0: 4f02 0b4d 1e47 3f4d cf15 314d 8cc4 7c4c
000003f0: ba92 114d 5972 264d f5bc 254c 3c70 a84c

sum f4 [128]
102.57569 6.221426e+07 3.5722916e+07 3.2740014e+07 5.5782764e+07 2.4175128e+08 1.4518024e+07 1.0699531e+07
340.68176 193.8801 9.419797e+07 1.0878621e+08 152.97728 4.2754976e+07 7.749421e+07 38913.71
4.2166196e+07 1.2374904e+08 3.3199126e+07 3.658117e+07 9.3300424e+07 1.6852772e+07 3.8280704e+07 6.9153205e+06
7.3095464e+07 8.093117e+07 8.135135e+07 3.7605964e+07 151.61615 1323.797 1124.6108 2.8092802e+07
6.025227e+07 9.584537e+06 4.6191708e+07 56866.758 5.2827252e+07 3.7851264e+07 73812.06 3.7194604e+07
4.128309e+07 7.690843e+07 5935.4307 77.55224 3.6892856e+07 1.4804098e+07 16122.947 7.023739e+06
6896.1826 11138.413 6365.082 7.217754e+07 7.058852e+07 4.544559e+07 3.8690068e+07 8.039709e+07
3.79951e+07 4.656895e+07 3.8298636e+07 1.1657684e+07 9135.375 155.7341 1.9932674e+07 125.2525
4.3603464e+07 9.85347e+06 114.114494 6.2567336e+07 8.153781e+07 22954.354 6.2434664e+07 90.89234
7.680117e+07 4.169627e+07 3.856766e+07 1.091963e+08 1.5699512e+07 3322.9934 9.005534e+06 9.6986904e+07
6.0873596e+07 9.3409816e+07 66355.7 958.0645 79.452156 5.0667984e+07 5856.532 8.560005e+07
4.553792e+07 3.867914e+07 3.887344e+07 3.9308856e+07 112.30228 3019.6824 104.04904 130.66872
3.923701e+07 6.698476e+06 7.245291e+07 4.4567948e+07 1.449031e+08 44086.3 4.334295e+07 98.35736
5.8471016e+07 9.112405e+07 41029.1 1.452933e+08 3.916711e+07 43883.867 48155.617 5.1510636e+07
3.939106e+07 49530.133 3.6601868e+07 8326.334 83.720634 5.5872064e+07 182.65833 1.2509275e+07
6.2249348e+07 6.035168e+07 5.5963308e+07 4.4888216e+07 3.8611056e+07 6.055525e+07 1.2035398e+08 2870.2961
00000000: c126 cd42 1d54 6d4c a945 084c 57c9 f94b
00000010: 5bcb 544c 4f8d 664d 0887 5d4b 0b43 234b
00000020: 4457 aa43 4ee1 4143 1aab b34c 447e cf4c
00000030: 2ffa 1843 e818 234c f8ce 934c b601 1847
00000040: edd9 204c 5608 ec4c 0b4a fd4b cc8b 0b4c
00000050: d9f4 b14c 9293 804b 8007 124c f109 d34a
00000060: 256b 8b4c 2c5d 9a4c 572a 9b4c 9374 0f4c
00000070: bc9d 1743 8179 a544 8c93 8c44 c154 d64b
00000080: 1cd8 654c 993f 124b 1735 304c c222 5e47
00000090: 1d85 494c 2064 104c 082a 9047 dbe2 0d4c
000000a0: 847b 1d4c f2b0 924c 727b b945 bf1a 9b42
000000b0: 2ebc 0c4c 82e4 614b caeb 7b46 f658 d64a
000000c0: 7681 d745 a709 2e46 a8e8 c645 f0aa 894c
000000d0: 0da3 864c 765c 2d4c 4597 134c 6458 994c
000000e0: 97f0 104c 7ea5 314c 0319 124c d4e1 314b
000000f0: 80bd 0e46 eebb 1b43 0113 984b 4881 fa42
00000100: 8255 264c 1e5a 164b 9f3a e442 eaac 6e4c
00000110: 6285 9b4c b554 b346 5a2b 6e4c e1c8 b542
00000120: 927c 924c 040f 1f4c bb1f 134c 8246 d04c
00000130: 388e 6f4b e5af 4f45 de69 094b e3fc b84c
00000140: df36 684c 432a b24c da99 8147 2184 6f44
00000150: 81e7 9e42 7448 414c 4204 b745 e644 a34c
00000160: a0b6 2d4c 998c 134c 584a 144c 8ef3 154c
00000170: c49a e042 ebba 3c45 1c19 d042 31ab 0243
00000180: 64ad 154c d86b cc4a 6631 8a4c 6303 2a4c
00000190: bc30 0a4d 4d36 2c47 1a57 254c f8b6 c442
000001a0: 9a0c 5f4c 2ace ad4c 1a45 2047 ff8f 0a4d
000001b0: 2269 154c de6b 2b47 9e1b 3c47 5b7f 444c
000001c0: d543 164c 227a 4147 03a0 0b4c 5619 0246
000001d0: f770 a742 9022 554c 88a8 3643 5be0 3e4b
000001e0: 6176 6d4c 3039 664c ab7b 554c 263c 2b4c
000001f0: 1c4a 134c fcff 664c 988e e54c bd64 3345

sum f4 [4, 128]
87416.266 1.9914866e+09 5.076475e+06 1.1128332e+07 2.5472848e+07 1.1459722e+08 1.9839288e+08 2.059509e+08
64836.363 73131.62 3.6983788e+07 1.9979304e+09 89549.43 2.0025304e+07 2.6000804e+07 2.1998538e+08
1.8309392e+07 1.1444107e+08 1.9252814e+08 3.4366842e+06 1.2907821e+08 2.0624483e+08 1.4655401e+06 2.0290173e+08
2.0067095e+09 1.9921568e+09 1.9858651e+09 3.0171198e+06 90512.414 2.0021134e+09 2.0020778e+09 2.4461098e+07
3.2321042e+07 2.0824206e+08 1.5012585e+07 2.6789534e+08 1.4209146e+07 1.4614101e+06 3.848715e+08 1.493791e+06
2.070909e+06 2.5966022e+07 2.0021005e+09 86032.37 1.7847105e+06 1.9453776e+08 2.0016634e+09 1.9936115e+08
2.0021601e+09 2.0018491e+09 2.0019474e+09 1.9863392e+09 2.0011284e+09 4.3967776e+07 1.4539596e+06 1.4264946e+08
1.6709252e+06 1.8287004e+07 3.8930088e+06 2.0904811e+08 2.0022575e+09 87041.734 1.9754304e+08 85401.16
1.464702e+06 2.0825291e+08 85296.45 1.8989691e+08 2.220954e+07 2.0015676e+09 1.9927996e+09 85623.87
2.0920934e+07 1.46011e+06 1.4460692e+06 1.982258e+09 2.0593997e+08 2.001868e+09 2.0681512e+08 1.9942808e+09
1.921051e+08 1.407409e+08 4.0155702e+08 2.0021102e+09 85890.3 2.6465685e+06 2.0020174e+09 2.7220546e+07
1.4457254e+06 1.9984809e+09 1.4374554e+06 2.2428198e+06 89769.38 2.0020714e+09 85647.6 83392.53
1.4529845e+06 1.9958494e+08 5.3682468e+07 2.030141e+08 1.1187332e+08 2.2359674e+08 1.881078e+07 74323.28
1.9968905e+09 1.9964027e+09 2.2355942e+08 1.11508376e+08 1.4396648e+06 2.25273e+08 2.2065165e+08 2.993001e+07
1.4491585e+06 2.1796947e+08 1.6815536e+06 2.0019228e+09 85443.25 3.4305676e+07 68409.734 2.0600883e+08
1.9992655e+09 2.0076858e+09 2.000798e+09 5.154765e+07 1.4333211e+06 1.9501602e+07 1.3562706e+08 2.0019439e+09
6772.8237 1.1978982e+08 1.0990335e+08 1.1535336e+08 1.1408257e+08 9.563124e+07 1.2926498e+08 1.31956904e+08
511283.4 5144.9795 1.1016636e+08 4.275828e+07 6771.8296 1.1812914e+08 1.1605437e+08 1.3303053e+08
1.1746768e+08 1.2103865e+08 1.2789702e+08 1.1001617e+08 1.20577736e+08 1.3075722e+08 1.0047217e+08 1.32172264e+08
5.8315364e+07 1.15899816e+08 9.9818744e+07 1.07930696e+08 6398.4165 1.3359905e+08 1.3334287e+08 1.2085484e+08
1.1528896e+08 1.3242285e+08 1.1271742e+08 1.3300515e+08 1.11846216e+08 9.834955e+07 1.32690264e+08 1.0101957e+08
1.0426919e+08 1.1566026e+08 1.3347496e+08 6300.015 9.849236e+07 1.3152618e+08 1.3315641e+08 1.3239818e+08
1.3347271e+08 1.3343568e+08 1.3347313e+08 1.1924777e+08 2.8298724e+07 1.13730616e+08 9.963742e+07 1.2466552e+08
1.00148856e+08 1.1595012e+08 1.1033317e+08 1.3196057e+08 1.3339556e+08 6827.6836 1.2958583e+08 6419.9824
1.02162216e+08 1.3235995e+08 7058.622 1.15726424e+08 1.123324e+08 1.3298842e+08 1.2264601e+08 6973.2686
1.1352448e+08 1.0064178e+08 1.0058487e+08 1.1521273e+08 1.3132666e+08 1.3347302e+08 1.3206435e+08 1.21029176e+08
1.1611747e+08 1.2041951e+08 1.33019096e+08 1.3360078e+08 6723.5005 1.09293e+08 1.33473976e+08 1.06514296e+08
1.0112869e+08 1.16374936e+08 1.0042928e+08 1.03940616e+08 6663.7104 1.33581976e+08 6708.391 7062.9795
1.0006183e+08 1.326691e+08 1.2002041e+08 1.19923144e+08 1.19720824e+08 1.3300641e+08 1.1799649e+08 7068.6035
1.1140234e+08 1.1881024e+08 1.3302971e+08 1.1035656e+08 1.00627976e+08 1.3302082e+08 1.3303045e+08 1.16399256e+08
1.0067214e+08 1.3298849e+08 9.9323224e+07 1.3346229e+08 7151.7246 1.2347937e+08 4975.8604 1.3180759e+08
1.09452536e+08 6.245322e+07 1.090391e+08 1.01217224e+08 1.0053231e+08 1.15797064e+08 1.21968024e+08 1.33475176e+08
00000000: 22bc aa47 5967 ed4e f6eb 9a4a 0cce 294b
00000010: a857 c24b ac93 da4c c333 3d4d fb68 444d
00000020: 5d44 7d47 cfd5 8e47 fb14 0d4c ff2b ee4e
00000030: b7e6 ae47 ecc7 984b d25e c64b 5ecb 514d
00000040: 88b0 8b4b 6e47 da4c f19b 374d 31c2 514a
00000050: 7832 f64c beb0 444d 21e6 b249 8e80 414d
00000060: ea37 ef4e cd7b ed4e cbbb ec4e 7f26 384a
00000070: 35c8 b047 a7ab ee4e 91aa ee4e 959f ba4b
00000080: 0997 f64b 5998 464d e912 654b 237c 7f4d
00000090: 7ad0 584b 1165 b249 6285 b74d f858 b649
000000a0: e8cb fc49 e31a c64b 42ab ee4e 2f08 a847
000000b0: 34dc d949 9286 394d eb9d ee4e 2820 3e4d
000000c0: 14ad ee4e 96a3 ee4e 96a6 ee4e 43ca ec4e
000000d0: 988d ee4e 48b9 274c 3d7c b149 870a 084d
000000e0: 6af8 cb49 ce84 8b4b 439c 6d4a 235d 474d
000000f0: 0db0 ee4e de00 aa47 4864 3c4d 94cc a647
00000100: f0cb b249 ff9a 464d 3a98 a647 8d19 354d
00000110: 0272 a94b ff9a ee4e 6b8f ed4e ef3b a747
00000120: 339d 9f4b 703c b249 aa85 b049 b74d ec4e
00000130: 5066 444d 2aa4 ee4e f93b 454d 9fbc ed4e
00000140: a934 374d 9238 064d 317a bf4d 8eab ee4e
00000150: 26c1 a747 a288 214a b9a8 ee4e 21ad cf4b
00000160: eb7a b049 cc3c ee4e 7b78 af49 0fe4 084a
00000170: b154 af47 5faa ee4e cd47 a747 44e0 a247
00000180: c45d b149 cb56 3e4d 49c8 4c4c fd9b 414d
00000190: a561 d54c 0c3d 554d ce83 8f4b a429 9147
000001a0: 430c ee4e 60fd ed4e f033 554d 73af d44c
000001b0: 86bd af49 4ad6 564d 086e 524d 0d59 e44b
000001c0: 34e6 b049 34df 4f4d 8d44 cd49 d6a5 ee4e
000001d0: a0e1 a647 a3dd 024c de9c 8547 2077 444d
000001e0: be54 ee4e b555 ef4e 8283 ee4e 80a3 444c
000001f0: 49f7 ae49 11c9 944b 1358 014d 7ba6 ee4e
00000200: 97a6 d345 207b e44c bf9f d14c e204 dc4c
00000210: 6198 d94c f166 b64c aa8d f64c 15b0 fb4c
00000220: 6da6 f948 d6c7 a045 2b20 d24c 221c 234c
00000230: a39e d345 3e50 e14c 2c5b dd4c 50bc fd4c
00000240: 440d e04c e7dc e64c b8f1 f34c d5d6 d14c
00000250: d9fb e54c 4c66 f94c ada2 bf4c 3d19 fc4c
00000260: 9974 5e4c b50f dd4c 9f63 be4c 89dc cd4c
00000270: 55f3 c745 e9d1 fe4c d354 fe4c 2783 e64c
00000280: 70e5 db4c 9893 fc4c cefd d64c ecaf fd4c
00000290: 6954 d54c 3e96 bb4c 2b16 fd4c f6ad c04c
000002a0: b1e0 c64c bc9a dc4c 5295 fe4c 1fe0 c445
000002b0: f9db bb4c c4dd fa4c c7f9 fd4c 8c87 fc4c
000002c0: 3994 fe4c 2482 fe4c 6d94 fe4c 7372 e34c
000002d0: f2e6 d74b 87ec d84c 160b be4c d6c7 ed4c
000002e0: cf04 bf4c 4528 dd4c 9e71 d24c dfb1 fb4c
000002f0: 8d6e fe4c 785d d545 552a f74c dc9f c845
00000300: e5db c24c e274 fc4c fa94 dc45 0bbb dc4c
00000310: ce41 d64c c0a7 fd4c bfed e94c 26ea d945
00000320: e087 d84c 7ef5 bf4c b5d9 bf4c 37c0 db4c
00000330: 587c fa4c 6094 fe4c 8ce4 fb4c 47d8 e64c
00000340: fc79 dd4c 97ae e54c bbb6 fd4c c2d2 fe4c
00000350: 011c d245 b975 d04c d794 fe4c ef28 cb4c
00000360: 3ee3 c04c b3f7 dd4c bc8d bf4c 4140 c64c
00000370: af3d d045 93c9 fe4c 21a3 d145 d6b7 dc45
00000380: 51da be4c d60b fd4c b7eb e44c 39bc e44c
00000390: 6f59 e44c 89b0 fd4c 790f e14c d4e4 dc45
000003a0: ac7b d44c d09c e24c eabb fd4c 0a7d d24c
000003b0: c1ee bf4c 92b7 fd4c 46bc fd4c 9303 de4c
000003c0: 5204 c04c c9a7 fd4c ab71 bd4c 228f fe4c
000003d0: cc7d df45 a984 eb4c e27e 9b45 2d67 fb4c
000003e0: 9fc3 d04c 793d 6e4c c0f9 cf4c 790e c14c
000003f0: 0bc0 bf4c 89dd dc4c b3a2 e84c 6d95 fe4c

sum f4 [4]
2.0021815e+09 1.3361772e+08 6.11117e+07 2.585358e+08
00000000: bbad ee4e 07db fe4c 651f 694c 188f 764d

fc1.weight f4 [128, 32]
0.17442088 0.4748775 -1.0617019 0.22661039 0.26463848 0.2690815 -0.10061394 0.17065586
-0.20291124 0.20627195 0.68165815 -0.14019139 -0.6149125 -0.08630182 0.33876106 -0.120390125
-0.8384096 0.014928543 0.17735612 -0.17558046 0.48935091 0.18405643 0.05107346 0.20364474
0.2209139 0.6811585 0.4203024 -0.29191786 -0.6205651 -0.12443004 0.13707943 0.6535855
-0.023299336 -0.049398977 -0.0010263091 -0.86200917 0.016447134 0.42249802 0.22437704 -0.4359133
-0.20506562 -0.15289035 -0.7597893 0.16689108 -0.80556273 0.040297985 0.75470537 0.63036597
0.43071482 -0.022763709 0.40446645 0.15129934 0.62937915 0.46108946 0.15254234 -0.07936651
0.1493167 -1.0762749 -1.3384571 -0.15472655 0.93669975 0.30791667 -0.2339232 0.64777225
-0.22057389 0.26985258 0.16569372 0.1942476 0.06422032 0.21712004 0.04782074 -0.038777724
-0.6074487 0.35512704 0.55726767 0.51217157 -0.36708876 0.5392268 -0.006629573 0.0926618
-0.10192842 0.3410405 0.17611578 -0.08115353 0.0529154 -0.023364985 -0.19168295 0.10339906
0.24703401 -0.7634239 -1.1651726 0.4293055 0.6823321 0.22981136 0.11787702 0.63988125
-0.023077318 0.6047011 0.31675372 -1.5592202 0.24397059 0.3455395 0.056977596 0.072947375
-0.5569838 -0.36430326 -2.1642616 -0.17401944 -1.0099186 0.037994668 -1.191213 0.4039931
0.21439277 0.9488985 1.1564468 0.1946631 -0.10049797 -0.21467935 0.09992002 -0.46063825
-0.036891982 0.4494762 0.4854093 0.004657637 0.03742858 0.29342863 -0.29137304 -0.10125547
-0.08208108 0.140202 -0.44008747 0.3729779 -0.6170355 -0.014640158 0.4994598 -0.16752927
-0.57698 -0.050017808 -1.590685 0.54796857 -0.83574855 0.14374962 0.53102887 0.2292741
0.075961925 -0.39711413 0.2401879 -0.108040534 -0.3440591 -0.13928191 -0.023189163 -0.7639583
-0.057048246 1.3202636 0.592704 -0.676054 -0.69104403 -0.18784556 0.158302 -0.057848547
-0.24332917 -0.3214065 -0.76416194 -0.14633799 -0.21416709 0.091164626 -0.1026804 0.11900601
-0.83977544 -0.17491952 -0.11227011 -0.549686 -0.55486226 0.64679825 0.7570963 -0.6662979
-0.05253474 0.4795468 0.35742605 -0.2053413 0.11229058 0.10232918 0.12199396 -0.39559397
0.21077806 0.9168749 2.039259 0.8764629 -0.06556421 0.38055673 0.257374 0.26469788
-0.0008118705 -0.55532336 -1.0360466 0.043179195 0.060192537 0.13230306 -0.6849279 -0.12566873
-0.016584767 -0.23472083 -1.1823176 -0.06405528 0.15001841 0.0822679 0.6575373 -0.11964981
0.1997963 0.015550669 0.03944801 0.1772799 -0.028626561 0.062067006 0.1332603 0.5357722
0.22077918 0.34837514 1.2460023 0.15009077 0.07755082 0.08627503 -0.11116494 0.5270235
-0.09074544 -0.24149692 -0.68450147 0.015589914 0.2131229 -0.024612615 -0.7501059 0.28739598
-1.4171362 0.17386365 0.20121713 -0.09846507 0.34705606 0.021797778 -0.22732256 0.1091364
-0.091928154 -0.06251004 0.099686325 0.07637378 0.443401 0.37167397 -0.025578879 0.32812634
-0.20543404 -1.0366428 -0.08006919 0.84305453 1.0386823 0.54536676 0.0406395 -0.4431881
00000000: 639b 323e 2523 f33e d9e5 87bf 8e0c 683e
00000010: b27e 873e 0dc5 893e ae0e cebd 69c0 2e3e
00000020: f7c7 4fbe f438 533e 2681 2e3f 558e 0fbe
00000030: e86a 1dbf 02bf b0bd 1772 ad3e 198f f6bd
00000040: 03a2 56bf d996 743c d89c 353e 5dcb 33be
00000050: 348c fa3e 4a79 3c3e 6832 513d 3f88 503e
00000060: 4137 623e 6760 2e3f e031 d73e 4276 95be
00000070: 5bdd 1ebf 2dd5 febd 8d5e 0c3e 6151 273f
00000080: 40de bebc 9556 4abd 3885 86ba a2ac 5cbf
00000090: 24bc 863c a951 d83e 18c3 653e 0730 dfbe
000000a0: b9fc 51be 4a8f 1cbe 8d81 42bf 7fe5 2a3e
000000b0: 5c39 4ebf 800f 253d 5f34 413f aa5f 213f
000000c0: a786 dc3e f57a babc 3a16 cf3e 37ee 1a3e
000000d0: fe1e 213f eb13 ec3e 0f34 1c3e e98a a2bd
000000e0: 7ae6 183e 60c3 89bf 9052 abbf a370 1ebe
000000f0: 8ecb 6f3f 41a7 9d3e 9089 6fbe 67d4 253f
00000100: 1fde 61be 1e2a 8a3e 9dab 293e d8e8 463e
00000110: f185 833d b754 5e3e aedf 433d 64d5 1ebd
00000120: c281 1bbf 36d3 b53e 18a9 0e3f ad1d 033f
00000130: 0ff3 bbbe c40a 0a3f e43c d9bb 78c5 bd3d
00000140: d9bf d0bd dc9c ae3e b257 343e d233 a6bd
00000150: d2bd 583d ed67 bfbc 8948 44be e3c2 d33d
00000160: 7cf6 7c3e c06f 43bf 6024 95bf eecd db3e
00000170: 51ad 2e3f ab53 6b3e 8269 f13d 42cf 233f
00000180: a50c bdbc b1cd 1a3f 8b2d a23e 8794 c7bf
00000190: 6dd3 793e 8eea b03e 5761 693d 6f65 953d
000001a0: 7e96 0ebf f585 babe 4383 0ac0 2732 32be
000001b0: 0345 81bf 4ca0 1b3d ab79 98bf 2fd8 ce3e
000001c0: c789 5b3e 03eb 723f 7306 943f c455 473e
000001d0: e1d1 cdbd e7d4 5bbe dea2 cc3d c7d8 ebbe
000001e0: 0c1c 17bd bf21 e63e 9187 f83e 179f 983b
000001f0: b64e 193d 473c 963e d92e 95be 075f cfbd
00000200: 201a a8bd 1d91 0f3e 2553 e1be f6f6 be3e
00000210: 0af6 1dbf 46dd 6fbc 32b9 ff3e cb8c 2bbe
00000220: f6b4 13bf 79df 4cbd 919b cbbf ab47 0c3f
00000230: 9ef3 55bf 1a33 133e 82f1 073f d4c6 6a3e
00000240: ed91 9b3d 8b52 cbbe d1f3 753e 5b44 ddbd
00000250: 8428 b0be eb9f 0ebe 33f7 bdbc c592 43bf
00000260: 6cab 69bd 66fe a83f 73bb 173f e011 2dbf
00000270: 43e8 30bf 965a 40be eb19 223e 99f2 6cbd
00000280: 482b 79be 658f a4be 1ea0 43bf a0d9 15be
00000290: 9e4e 5bbe 85b4 ba3d 1a4a d2bd 6cb9 f33d
000002a0: 86fb 56bf 1a1e 33be dfed e5bd 39b8 0cbf
000002b0: 740b 0ebf 9294 253f 10d1 413f 8092 2abf
000002c0: ab2e 57bd 2887 f53e 8c00 b73e fd44 52be
000002d0: 9bf8 e53d f691 d13d f8d7 f93d 4b8b cabe
000002e0: 34d6 573e 50b8 6a3f 3883 0240 df5f 603f
000002f0: 8746 86bd 55d8 c23e 86c6 833e 7b86 873e
00000300: b5d3 54ba ac29 0ebf 2d9d 84bf abdc 303d
00000310: 738c 763d 747a 073e 6f57 2fbf 4eaf 00be
00000320: c7dc 87bc a85a 70be 2f56 97bf 6a2f 83bd
00000330: 6d9e 193e 137c a83d 5d54 283f f60a f5bd
00000340: 6797 4c3e 3cc8 7e3c 3d94 213d dd88 353e
00000350: 4082 eabc f939 7e3d 6375 083e 5e28 093f
00000360: f013 623e 3a5e b23e 017d 9f3f 65b1 193e
00000370: f7d2 9e3d f7b0 b03d 72aa e3bd 03eb 063f
00000380: bfd8 b9bd f84a 77be 7d3b 2fbf d76c 7f3c
00000390: e43c 5a3e 65a0 c9bc f106 40bf 9125 933e
000003a0: b864 b5bf 5009 323e dd0b 4e3e 0ea8 c9bd
000003b0: 55b1 b13e 4191 b23c 3fc7 68be e882 df3d
000003c0: d444 bcbd 4405 80bd 5828 cc3d db69 9c3d
000003d0: 7505 e33e 0d4c be3e cc8a d1bc 2d00 a83e
000003e0: 4d5d 52be b6b0 84bf 51fb a3bd 6cd2 573f
000003f0: 8bf3 843f 289d 0b3f 9b75 263d 8de9 e2be

fc1.bias f4 [128]
0.4758447 -0.10024341 0.02288982 0.16699661 -0.083441444 -0.10851596 -0.08521507 -0.4019853
-0.23107795 0.51142585 0.51537496 0.23603818 -0.37496513 0.0003464037 0.58628774 0.0075598094
0.4275793 0.61628616 0.97084534 0.8402526 -0.15381172 0.9450647 0.4636867 0.07313808
0.13911378 0.44801733 -0.22949612 0.5381642 0.26255554 0.21261622 0.7873612 -0.14033242
-0.19161925 0.05745853 -0.2469469 0.5049116 0.4812756 -0.44472846 0.5302811 -0.121267006
0.6062417 0.7745412 0.055265546 0.004936096 0.3253352 -0.29032293 0.51484567 0.017363098
-0.1884783 0.6439481 -0.2866763 1.0192735 0.14976285 -0.26317403 0.1212157 0.27523214
-0.060055953 -0.11319604 0.10934091 -0.0703939 -0.3071233 0.1867554 0.71282834 -0.014400541
-0.32482144 -0.041825544 0.76022494 0.12906358 0.59149045 0.247212 -0.25446308 0.3568758
0.24604042 0.030849548 -0.23218289 -0.014444837 0.06312301 0.07712237 -0.14283615 0.107806385
0.3630798 0.8880276 -0.04294514 0.26198336 0.16940284 0.21970505 0.06351038 0.6237467
-0.0038229204 -0.28208148 0.37252542 -0.08623521 0.83665943 0.104446016 0.2782665 0.2959898
-0.1781625 -0.12593786 -0.15301585 0.14907858 -0.07886128 -0.05801894 -0.08460744 0.3844762
0.25366333 -0.271347 0.087990895 -0.3020143 0.10686774 0.5884672 -0.2532256 -0.1856592
-0.04755222 -0.056431014 0.50025785 0.30931208 -0.07945495 0.61157525 0.35023603 -0.18334828
-0.05690201 -0.018089416 0.2888493 0.14105615 -0.14445075 0.4890558 0.13715854 -0.20936331
00000000: eba1 f33e 6b4c cdbd 6f83 bb3c 2901 2b3e
00000010: 59e3 aabd 9e3d debd 3d85 aebd 04d1 cdbe
00000020: b39f 6cbe ceec 023f 9def 033f feb3 713e
00000030: 6efb bfbe 859d b539 f416 163f 47b8 f73b
00000040: adeb da3e eec4 1d3f 5289 783f cb1a 573f
00000050: d280 1dbe c3ef 713f 5868 ed3e 6bc9 953d
00000060: d873 0e3e 8762 e53e 0801 6bbe 21c5 093f
00000070: ae6d 863e 11b8 593e 8190 493f 4db3 0fbe
00000080: d637 44be a359 6b3d a6df 7cbe e341 013f
00000090: c169 f63e 73b3 e3be 81c0 073f d65a f8bd
000000a0: a832 1b3f 5548 463f 205e 623d f9be a13b
000000b0: 5692 a63e 35a5 94be edcc 033f 0e3d 8e3c
000000c0: 7500 41be c8d9 243f 3cc7 92be 8e77 823f
000000d0: 6f5b 193e bfbe 86be f03f f83d 3aeb 8c3e
000000e0: 3bfd 75bd 53d3 e7bd 21ee df3d ad2a 90bd
000000f0: 443f 9dbe cf3c 3f3e eb7b 363f 3ff0 6bbc
00000100: ff4e a6be 4351 2bbd 1a9e 423f 3e29 043e
00000110: eb6b 173f 2425 7d3e fc48 82be 6db8 b63e
00000120: 05f2 7b3e 31b8 fc3c 5ac1 6dbe 0aaa 6cbc
00000130: a346 813d 55f2 9d3d a443 12be 98c9 dc3d
00000140: 98e5 b93e c755 633f 3ee7 2fbd af22 863e
00000150: f077 2d3e 5cfa 603e bb11 823d ddad 1f3f
00000160: f689 7abb fc6c 90be a7bb be3e 169c b0bd
00000170: 502f 563f cbe7 d53d f278 8e3e fa8b 973e
00000180: 3b70 36be dbf5 00be 30b0 1cbe 0ea8 183e
00000190: 0682 a1bd 45a5 6dbd aa46 adbd 11da c43e
000001a0: 29e0 813e feed 8abe 9234 b43d 9ea1 9abe
000001b0: 79dd da3d c9a5 163f c9a6 81be 721d 3ebe
000001c0: 1ec6 42bd 3524 67bd e610 003f 275e 9e3e
000001d0: 47b9 a2bd 3290 1c3f 2352 b33e a7bf 3bbe
000001e0: 1512 69bd 4130 94bc 0ee4 933e 0671 103e
000001f0: e6ea 13be 8665 fa3e 4a73 0c3e 5663 56be

fc2.weight f4 [128, 128]
-0.12858829 -0.12627675 0.009846132 0.0015538343 0.09343661 -0.19204101 -0.47637168 -0.8791744
-0.2155295 -0.023460932 -0.051970154 -0.09412736 -0.6116013 -0.86934334 0.01934667 0.032942336
0.19987406 0.16242617 -0.2459155 0.11356437 -0.43397802 0.14084673 0.07237709 -0.059291977
0.024656752 -0.14489633 -0.119668856 -0.09502064 -0.1755944 -0.40864155 -0.19573994 -0.10528815
-0.75856036 -0.18723856 -0.53658634 -0.01113644 -0.23315363 -0.7788739 0.052766796 -0.11998798
-0.11641723 0.10205021 -0.3587176 -0.10208476 0.17570053 -0.19732715 -0.25306568 -0.913565
-0.6421447 -0.2339046 -0.66964257 -0.39056137 -0.26260552 -0.19698325 -0.022530815 -0.0067450246
-0.01777546 -0.032377817 -0.09085904 -0.00857882 -0.46838042 0.07731718 -0.11247781 -0.192166
-0.72694075 0.03328845 0.12841293 -0.03789103 0.0862133 -0.13431294 -0.08980854 -0.044107392
0.03169447 -0.089352086 -0.8042452 0.021535506 -0.2592587 -0.7409404 -0.10061786 -0.41381055
-0.05924883 -0.065180525 -0.06024224 -1.293877 -0.89129966 -0.16105099 -0.032716133 0.1405074
-0.2990821 -0.22110064 -0.18451403 0.107023165 0.010455427 0.014276873 -0.09177667 -0.099380694
-0.25999978 -0.041262884 -0.012000985 0.13408886 -0.49220213 -0.71677786 -0.015549119 -0.15394744
0.030238075 -0.8051622 0.13659596 -0.14117378 -0.374382 -0.20345052 -0.13599202 -0.28976655
-0.4381302 -0.026626091 -0.19695039 -0.42574695 -0.07327094 0.014077081 -0.061043784 -0.32028112
-0.10012492 -0.22702101 -0.13435759 -0.40828833 -0.93542457 -0.07648674 -0.14323759 -0.054844927
0.5504292 0.43219644 -0.05407905 0.18904795 -1.1523842 -0.26397312 -0.44412765 -0.49089146
-0.41404665 -0.39575732 0.53782094 -0.18977644 -1.0683548 0.42825922 0.20854026 0.64071375
0.2209359 0.183725 -0.07639734 0.32984862 -0.71960694 0.09537036 0.5591071 0.6321508
-0.3116039 -0.22151858 -0.64360166 0.3888342 0.52325076 0.29519773 0.16818307 -0.5693054
-0.027234595 -0.2335014 -0.92117256 0.9266181 0.6783557 -1.3543768 0.037818644 -0.276749
0.5371545 0.20333596 0.37909284 -0.53468513 1.3401428 0.9004708 -0.13152796 0.42568612
-0.26317263 -0.02253976 0.23357996 0.16651951 -0.027859112 -0.52515125 0.7637473 -0.50095767
0.46413445 0.4734531 0.18183707 0.043042153 -0.769181 -0.64848953 -0.10821258 0.3767067
-0.07093605 1.6694783 0.107964106 -0.80195975 1.7574624 -0.39264637 0.116850294 1.0040069
-0.054126143 0.7530428 -0.49109 1.608011 -0.21968742 0.48102772 -0.9516102 0.16544461
0.20214994 -0.26085564 -1.2413929 0.67980623 0.68513286 -0.657281 0.5071709 1.7554462
-0.113914885 1.54142 -0.3002579 -0.007752073 0.2697073 3.376472 0.47808558 -0.63652146
-0.52349305 1.7024413 -0.6560474 0.94426894 -0.423106 0.73188007 0.813596 -0.108228035
-1.4365747 -0.2155789 -0.44347328 -0.18518448 0.12177404 0.5488935 -0.4083943 2.4196048
-0.83503836 -1.1834952 0.29183578 0.46121886 0.040888637 -0.07961211 0.27331626 0.07371028
-0.60203505 -0.3232184 -0.39545646 0.3061689 0.25014403 0.041517835 -0.17405592 -0.3829782
00000000: a6ac 03be b14e 01be ac51 213c 07aa cb3a
00000010: b25b bf3d 66a6 44be fde6 f3be 9311 61bf
00000020: c4b3 5cbe 2431 c0bc a8de 54bd d8c5 c0bd
00000030: e791 1cbf 498d 5ebf e87c 9e3c 8bee 063d
00000040: c9ab 4c3e 0c53 263e 46d1 7bbe 7094 e83d
00000050: 5e32 debe 203a 103e 713a 943d 25dc 72bd
00000060: f5fc c93c b45f 14be f214 f5bd 2e9a c2bd
00000070: 05cf 33be 7739 d1be 0d70 48be 50a1 d7bd
00000080: 0331 42bf 77bb 3fbe b95d 09bf 9d75 36bc
00000090: d3bf 6ebe 4864 47bf ff21 583d 42bc f5bd
000000a0: 286c eebd b3ff d03d d5a9 b7be d111 d1bd
000000b0: d7ea 333e 2110 4abe d391 81be 65df 69bf
000000c0: 9863 24bf b084 6fbe b26d 2bbf a9f7 c7be
000000d0: 3b74 86be fab5 49be 8b92 b8bc 5e05 ddbb
000000e0: d79d 91bc 9a9e 04bd 4e14 babd 2e8e 0cbc
000000f0: 8fcf efbe 7858 9e3d c45a e6bd 2ac7 44be
00000100: ca18 3abf 7859 083d ae7e 033e a033 1bbd
00000110: 9990 b03d 5589 09be 8aed b7bd f4a9 34bd
00000120: 10d2 013d 3afe b6bd 03e3 4dbf 3b6b b03c
00000130: 8ebd 84be 45ae 3dbf bd10 cebd fade d3be
00000140: e7ae 72bd 5e7d 85bd 91c0 76bd c39d a5bf
00000150: 372c 64bf 8dea 24be 5a01 06bd 2ce1 0f3e
00000160: 4a21 99be 3568 62be 3ff1 3cbe f62e db3d
00000170: 3d4d 2b3c 8ce9 693c 68f5 bbbd 1b88 cbbd
00000180: b11e 85be 4503 29bd c89f 44bc 974e 093e
00000190: eb01 fcbe c17e 37bf bbc1 7ebc 66a4 1dbe
000001a0: d7b5 f73c 1c1f 4ebf d0df 0b3e dc8f 10be
000001b0: ffae bfbe 5555 50be 7e41 0bbe 485c 94be
000001c0: 9a52 e0be f61e dabc 5dad 49be 81fb d9be
000001d0: 130f 96bd 8fa3 663c 0c09 7abd e3fb a3be
000001e0: 4b0e cdbd 3278 68be 0995 09be 2b0b d1be
000001f0: fc77 6fbf 14a5 9cbd e0ac 12be 13a5 60bd
00000200: eee8 0c3f da48 dd3e fe81 5dbd c995 413e
00000210: 5381 93bf 7c27 87be b364 e3be 2056 fbbe
00000220: ecfd d3be b4a0 cabe a2ae 093f c154 42be
00000230: dabf 88bf cb44 db3e 948b 553e d105 243f
00000240: 053d 623e 6822 3c3e 3576 9cbd ebe1 a83e
00000250: 2938 38bf 8951 c33d a521 0f3f a3d4 213f
00000260: 8c8a 9fbe c4d5 62be 14c3 24bf 4715 c73e
00000270: c3f3 053f 2824 973e 2f38 2c3e 00be 11bf
00000280: 161b dfbc fe1a 6fbe f7d1 6bbf d836 6d3f
00000290: b8a8 2d3f 385c adbf b9e7 1a3d 0cb2 8dbe
000002a0: f582 093f 4d37 503e 7518 c23e 20e1 08bf
000002b0: cd89 ab3f 4185 663f 44af 06be 88f3 d93e
000002c0: 90be 86be 4ea5 b8bc 962f 6f3e 1784 2a3e
000002d0: cb38 e4bc 5070 06bf f184 433f c33e 00bf
000002e0: 08a3 ed3e 7268 f23e 7f33 3a3e f84c 303d
000002f0: 0ce9 44bf 6903 26bf 8f9e ddbd b3df c03e
00000300: eb46 91bd 77b1 d53f 491c dd3d 3c4d 4dbf
00000310: 87f4 e03f f208 c9be 354f ef3d 4c83 803f
00000320: 60b3 5dbd 6ac7 403f 2670 fbbe 4ed3 cd3f
00000330: bdf5 60be 4449 f63e ba9c 73bf 506a 293e
00000340: 6500 4f3e df8e 85be f6e5 9ebf c807 2e3f
00000350: de64 2f3f 9143 28bf f4d5 013f 76b2 e03f
00000360: 354c e9bd 404d c53f 67bb 99be 1a05 febb
00000370: 1317 8a3e 1e18 5840 a2c7 f43e 12f3 22bf
00000380: a403 06bf 99e9 d93f b9f2 27bf 9cbb 713f
00000390: 5aa1 d8be 7e5c 3b3f d447 503f a9a6 ddbd
000003a0: aee1 b7bf b7c0 5cbe ee0e e3be 00a1 3dbe
000003b0: ab64 f93d 4984 0c3f 0f19 d1be ceda 1a40
000003c0: 13c5 55bf c57c 97bf 806b 953e e124 ec3e
000003d0: d87a 273d ad0b a3bd 1cf0 8b3e 6af5 963d
000003e0: f81e 1abf e27c a5be 4579 cabe 2cc2 9c3e
000003f0: e112 803e 9b0e 2a3d b73b 32be b815 c4be

fc2.bias f4 [128]
-0.08514371 0.07731056 -0.048686754 0.05674495 0.14081547 0.026916508 0.19028679 0.06298347
-0.20312907 -0.030819312 0.05534191 0.0015024967 -0.14393118 -0.10861529 0.10237993 0.25641266
-0.12039536 0.12522337 0.220309 -0.02224867 0.104369365 0.13226022 0.23586287 0.27931342
0.1153411 0.15253684 0.30406612 0.04784895 -0.30387247 -0.015760845 0.1557985 0.016167352
0.4362225 0.16679642 0.13983597 0.36915138 -0.051679768 0.14741828 0.39349607 0.082020134
-0.09622169 0.085815385 0.3717596 0.06754871 0.041934557 0.09178199 0.1650336 0.30440223
0.13717812 0.14317763 0.33446163 0.30843598 -0.047648735 0.56048506 0.05895818 0.1130825
0.019351259 0.24451745 0.13475896 0.19233091 0.14758636 -0.24072386 0.062800795 -0.10260195
-0.012205456 0.28465566 0.0035099108 0.19644852 0.14780304 0.18459551 0.46119973 -0.06009032
0.14750274 0.1781313 0.12804602 0.1794218 0.12356132 0.43282768 0.20610036 0.26742774
0.120857954 0.3438595 0.3245115 0.020655524 -0.0016930554 0.05031125 0.31825802 -0.10694528
-0.032164812 0.11538824 0.19734381 0.04403567 -0.110925205 -0.052949477 -0.16077518 -0.12681696
0.1098206 0.16445765 -0.015319543 0.2355069 0.2608347 0.2677678 -0.007998071 -0.009198131
0.17429687 0.3291979 0.14111035 0.031739656 0.18331666 0.20696351 0.37994206 0.12590405
0.2841435 0.31908262 -0.014025233 0.35714152 -0.07705469 0.061249927 0.020897768 0.16512112
0.26857132 0.15121584 0.28531143 0.14508578 0.2628212 0.012589596 0.17883864 0.29356593
00000000: d35f aebd 0055 9e3d c36b 47bd 656d 683d
00000010: ee31 103e 0280 dc3c 8ada 423e 7afd 803d
00000020: 1101 50be c878 fcbc 33ae 623d 6cef c43a
00000030: b262 13be b171 debd 92ac d13d 8548 833e
00000040: d891 f6bd 8e3a 003e af98 613e d842 b6bc
00000050: 9bbf d53d 396f 073e 0986 713e 2b02 8f3e
00000060: f437 ec3d 9e32 1c3e 8eae 9b3e 43fd 433d
00000070: 2c95 9bbe e31c 81bc a489 1f3e 6571 843c
00000080: 8e58 df3e aecc 2a3e 2931 0f3e 6901 bd3e
00000090: 2aae 53bd d1f4 163e 5178 c93e 2cfa a73d
000000a0: e10f c5bd fabf af3d 4657 be3e fa56 8a3d
000000b0: 92c3 2b3d 32f8 bb3d 91fe 283e 9cda 9b3e
000000c0: 6c78 0c3e 289d 123e 8e3e ab3e 52eb 9d3e
000000d0: 522b 43bd f37b 0f3f 227e 713d cc97 e73d
000000e0: 8886 9e3c c862 7a3e 41fe 093e 65f2 443e
000000f0: e120 173e 5180 76be b49d 803d f920 d2bd
00000100: 65f9 47bc 63be 913e 8806 663b cd29 493e
00000110: ae59 173e 9b06 3d3e 5f22 ec3e 4421 76bd
00000120: f50a 173e 0d68 363e 7f1e 033e 59ba 373e
00000130: b80d fd3d 979b dd3e f90b 533e 4aec 883e
00000140: 6084 f73d 5a0e b03e 5f26 a63e c635 a93c
00000150: 83e9 ddba 2b13 4e3d b7f2 a23e 2106 dbbd
00000160: 40bf 03bd ab50 ec3d 7f14 4a3e bf5e 343d
00000170: c12c e3bd 8de1 58bd 40a2 24be 4edc 01be
00000180: 9fe9 e03d 9667 283e d2fe 7abc b928 713e
00000190: 208c 853e dc18 893e 570a 03bc c2b3 16bc
000001a0: e17a 323e a18c a83e 3b7f 103e 7101 023d
000001b0: 5db7 3b3e 3eee 533e c487 c23e feec 003e
000001c0: 427b 913e cc5e a33e 17ca 65bc 41db b63e
000001d0: d9ce 9dbd 34e1 7a3d cc31 ab3c 8315 293e
000001e0: 2e82 893e 53d8 1a3e 5714 923e 5e91 143e
000001f0: 8090 863e 9844 4e3c 7a21 373e 464e 963e
